output/traffic-5000.safetensors (safetensors, 10808 bytes, 6 tensors)

fc1.bias f4 [64]
000000 77 00 6f be c0 05 eb bd 80 ad 0b 3f 9b 81 fd 3e
       -0.23340021 -0.11475706 0.54561615 0.49512944
000010 eb 18 82 be 20 f2 d2 be 4b 2f 4e be 9d 1f de be
       -0.25409636 -0.41200352 -0.20135228 -0.43383494
000020 44 b1 9a be ab 83 14 be 5e 5b 18 3f 62 3c cd 3d
       -0.30213368 -0.14503352 0.59514415 0.10021283
000030 86 36 bd be 63 66 f3 be a6 8b 63 3e 53 6f 9d be
       -0.3695566 -0.47539052 0.2222124 -0.30748996
000040 57 d5 6e 3d fe 26 50 3e b4 a4 e9 bd 52 c4 cf bb
       0.058308925 0.20327374 -0.11408368 -0.006340542
000050 18 a4 1d 3d 93 64 07 be 78 40 64 be c3 f9 e7 be
       0.03848657 -0.1322196 -0.22290218 -0.4530774
000060 7b 5b cc be 30 bd e2 be 4e 1c f6 3e 0a b1 bf be
       -0.39913544 -0.44284964 0.4806847 -0.37439758
000070 ee 1a fa be 59 0d 7a 3e 30 85 11 3e b9 17 e5 3e
       -0.4884867 0.24419154 0.14210963 0.4474466
000080 a6 ca c0 3e fe 90 f2 3e 07 b8 e0 be 8e c4 e8 3d
       0.37654608 0.47376245 -0.43890402 0.11365615
000090 08 c8 b7 3e 49 58 fc bc 7f 7c b0 be 8b 53 09 3f
       0.358948 -0.030803816 -0.34469983 0.536431
0000a0 f9 44 8c be 5a f2 02 bf 94 bd d4 be 85 a8 8a 3d
       -0.27396372 -0.5115105 -0.41550887 0.06770424
0000b0 3b 20 a3 3e 2e c0 55 3e e6 69 a8 bb b5 04 17 bf
       0.31860527 0.20874092 -0.005139577 -0.5899156
0000c0 d3 62 db be 39 ee 39 3e 3d fb 34 3f 6b dc d5 3e
       -0.42848834 0.18157281 0.7069586 0.41769728
0000d0 ac 01 8e be e5 24 3b 3e 28 f1 04 bf 94 c3 4d be
       -0.2773565 0.18275793 -0.51930475 -0.20094138
0000e0 62 e1 79 3e bb 82 0c 3f f0 23 13 3f 36 73 11 bf
       0.24402383 0.5488698 0.5747671 -0.5681642
0000f0 2d 94 a2 3e 60 e6 d9 be ce a8 60 3e d4 ad f7 3e
       0.31753674 -0.42558575 0.21939394 0.48374808

fc1.weight f4 [64, 5]
000000 4f 9b 1c 3f 94 61 ec 3e 65 b1 c7 be aa 4c 09 3f
       0.6117448 0.46168196 -0.3900253 0.53632605
000010 a5 00 db bd 90 fd 0e 3e 56 09 c6 be cc 77 d2 3e
       -0.10693482 0.13963914 -0.38678998 0.41107023
000020 bc 37 22 3f 95 31 fd be fe cb 00 3f 5a 75 8c 3d
       0.63366294 -0.4945189 0.5031127 0.068583205
000030 a8 90 ec 3e 97 d7 fd 3d 91 6f ca 3e f1 67 5c 3d
       0.46204114 0.12394636 0.39538243 0.053810064
000040 6b 5d fe 3e 86 e8 d1 3e ce c2 1f be 3d ce 05 3e
       0.49680647 0.40997714 -0.15601656 0.13066955
000050 d1 24 de be 77 02 a3 bd 42 85 9a be e3 23 c8 3e
       -0.43387464 -0.079594545 -0.30179793 0.3908988
000060 40 e5 34 bf 61 f1 85 be 3f 59 11 be 15 69 b0 be
       -0.7066231 -0.2616072 -0.14194201 -0.3445517
000070 41 25 1d 3d 77 51 38 bf 3c 25 48 3f 63 e7 0a bf
       0.038365606 -0.71999305 0.78181815 -0.5425932
000080 5d de 0f 3f 31 0d 2b 3e 80 d5 76 be bf d0 06 3f
       0.56198674 0.16704251 -0.24104881 0.5266227
000090 5f 24 bd bc 02 7e 21 3f 32 63 b5 3d 7e 21 a1 be
       -0.023088632 0.630829 0.08856811 -0.31470865
0000a0 a6 7a 0c 3e 34 44 83 be e7 25 7b 3e 88 de 31 3f
       0.13718662 -0.25637972 0.24526177 0.6948018
0000b0 89 ca aa 3e 27 dc 68 be 0f 09 26 3f 47 ac cc 3d
       0.33357647 -0.22740231 0.6485757 0.09993797
0000c0 36 09 be 3e 70 a5 c9 be 3b 25 e4 be ce 72 5a be
       0.37116402 -0.3938403 -0.44559655 -0.21332857
0000d0 48 f4 10 bf 39 73 1f 3f 02 10 04 3e dd b7 2d 3e
       -0.56622744 0.6228519 0.12896731 0.1696467
0000e0 8b 45 70 3e de 08 55 3d 34 09 12 3f 2a 65 d3 be
       0.23464029 0.05201041 0.5704529 -0.4128812
0000f0 47 cb 0e 3b 34 58 05 bf b4 87 d6 3e 36 9b 7a be
       0.0021788643 -0.5208771 0.41900408 -0.24473271
000100 ec a7 44 3e 93 05 0f bd f5 80 02 3f e0 d6 d9 be
       0.19204682 -0.034917425 0.5097802 -0.4254675
000110 59 ea f9 be d5 96 cf be 8b 42 36 3f a7 e9 b2 3d
       -0.48811606 -0.40544763 0.71195287 0.08735972
000120 ee 91 35 3f ed 17 fb be 9e 35 ac be d0 36 07 bf
       0.70925796 -0.4904169 -0.33634657 -0.5281801
000130 71 2c 91 be 34 09 fe 3e c3 99 bf 3e 05 1d 05 3f
       -0.2835422 0.49616396 0.37421998 0.51997405
000140 1a ff d0 be 51 ec 11 bf eb 76 f1 3e 36 d1 48 be
       -0.40819627 -0.57001215 0.4716104 -0.19611058
000150 da 3d af 3e 77 43 55 be b2 5b e5 3e ef 9f 0b bf
       0.34226876 -0.20826517 0.4479652 -0.54540914
000160 a3 29 5e be 6c e6 98 3e 92 a4 fc 3d 4e da 01 3e
       -0.2169557 0.29863298 0.12336077 0.12680933
000170 5e 84 ac 3e 46 84 0a 3f 7a d2 2c bf b8 02 a0 be
       0.33694738 0.54108083 -0.6750866 -0.31252074
000180 da d6 37 3f e2 9e 1f be 12 ea b4 3d b9 5f 17 bf
       0.7181221 -0.15587953 0.08833708 -0.59130436
000190 2a 3f fe be 83 9d cb 3e c8 00 b2 3d 71 15 34 bf
       -0.49657565 0.3976861 0.08691555 -0.70345217
0001a0 2b 17 a6 3d cd 28 98 be f5 ad 41 bf ce b9 82 be
       0.08109888 -0.2971863 -0.7565606 -0.25532383
0001b0 ad ce 13 bf bb 4e 94 be a1 41 28 3f e2 75 78 3e
       -0.5773724 -0.28966317 0.6572514 0.24263719
0001c0 da 65 81 3e 28 61 d1 be ae 57 c7 be 80 a5 71 be
       0.2527302 -0.40894437 -0.38934082 -0.2359829
0001d0 6a 00 ac 3e 3f 7e 23 bf 67 85 13 be fb 23 e8 be
       0.33594066 -0.6386451 -0.14406358 -0.4533995
0001e0 c4 17 d7 3d 1e a8 ed be 27 cd 8f 3d 8a f3 13 bf
       0.1050258 -0.46417326 0.070215516 -0.57793486
0001f0 36 a8 2f bf f9 00 a7 be 53 4a a6 be b8 73 36 bf
       -0.68616045 -0.3261793 -0.3247858 -0.7127032
000200 a7 85 21 3f 67 bb a2 bc 4a 5a 08 3f a7 d3 75 3e
       0.6309456 -0.019864751 0.5326277 0.2400652
000210 7c 25 3d bf b6 76 f8 3e 92 7e 56 be d9 52 8e be
       -0.7388532 0.4852807 -0.2094672 -0.27797583
000220 30 c6 12 bf 71 92 21 bf 91 78 9a 3e 80 e3 d0 be
       -0.5733366 -0.63114077 0.3017011 -0.4079857
000230 6b 10 eb 3c e2 96 7a be 3e ff 11 3f 44 2c 1e bf
       0.028694352 -0.2447162 0.57030094 -0.61786294
000240 40 d5 ae 3c a0 f6 3e 3e 59 c3 01 3f df 52 df 3e
       0.02134192 0.18648767 0.506887 0.43617913
000250 99 3b 2c 3f bc 46 e4 be 0f 8f 92 3e cb d0 1a be
       0.6727844 -0.44585216 0.2862477 -0.1511871
000260 f5 39 9d bc d3 3a e8 be 43 a3 39 3f 9d 93 30 bf
       -0.019192675 -0.4535738 0.7251474 -0.6897524
000270 35 5b d3 3e 18 86 a1 3c b1 8d 48 3e bd c9 21 be
       0.41280523 0.019717261 0.19585301 -0.15799613
000280 69 ac fd 3e 07 7d 9a 3d 78 27 13 be d0 76 0b bf
       0.495456 0.07543378 -0.14370525 -0.5447817
000290 cd ae f5 3e 33 60 94 be e8 f4 c3 bd 9f f2 3e 3f
       0.47984925 -0.28979644 -0.095681965 0.7458896
0002a0 6d 8b bd 3d ba 03 28 be e3 cc df be 56 28 7b bd
       0.09255109 -0.16407672 -0.43711004 -0.061317764
0002b0 54 0e 94 3e 22 5a 5f be 93 a1 0d bf a7 a8 09 bd
       0.28917181 -0.21811727 -0.5532467 -0.033608105
0002c0 05 4c c2 be e6 38 c6 3e a4 9e 34 3f 29 a8 16 bf
       -0.37948623 0.38715285 0.70554566 -0.5885034
0002d0 cc 9e 6a 3e a7 20 b7 3e 35 dd b2 3d 76 7a 78 bb
       0.22912139 0.357671 0.08733598 -0.003791479
0002e0 a7 9f cb 3e 84 1e fa 3e fe 42 0e 3f 86 ad d9 bd
       0.39770243 0.48851407 0.5557097 -0.106288
0002f0 da 5d 94 bd a1 4c 36 be 47 7b 6a be d0 1e 5b be
       -0.07244463 -0.17802669 -0.22898589 -0.21398473
000300 d4 bd 69 3e dc 82 31 3f 64 7e 8d bb da 61 90 bd
       0.2282632 0.693403 -0.0043180455 -0.07049914
000310 6a ec 3b 3c 12 71 4b bd ce 0f 3b 3d d2 7b b2 3d
       0.01146994 -0.04966838 0.04566937 0.08715023
000320 e0 b4 02 bf 7d 0f d9 bd b2 3e 23 3f 01 78 90 3e
       -0.51057243 -0.10598657 0.6376754 0.28216556
000330 d8 4a 26 be a1 be a1 be 4d 86 1e bf 8f 00 25 bf
       -0.16239488 -0.3159075 -0.61923677 -0.6445398
000340 ac 40 a5 be 9e 4b 70 3e c1 a9 01 3f 23 ea 9d 3e
       -0.32275903 0.23466346 0.5064965 0.30842695
000350 2d 0c 0c bf 62 28 73 be 11 ca 32 be ab 76 16 3f
       -0.5470608 -0.23745874 -0.17459895 0.5877482
000360 e8 60 31 3e de 98 42 be 36 59 fe 3e 8c 5a 0b 3e
       0.17322123 -0.19003627 0.49677438 0.1360876
000370 be 96 1f bf de f9 96 3e c3 83 d0 bd 3c 3e 20 be
       -0.6233939 0.2948751 -0.101813816 -0.1564874
000380 0d 02 3e bf 49 72 06 3f 57 aa 1d 3f c6 e1 7b 3e
       -0.7422188 0.52518135 0.6158804 0.24597844
000390 53 63 af be c2 a7 2a bf 1f db f2 be f5 37 11 3f
       -0.34255466 -0.6666223 -0.474328 0.5672601
0003a0 62 0e 06 3e 9b 60 1b 3f 72 78 b4 3e ea 90 7a bc
       0.13091424 0.60694283 0.35248142 -0.015293339
0003b0 73 c5 9e bb 1f a3 e8 be eb 19 0a bf 4d b1 1c bf
       -0.004845315 -0.45436952 -0.539458 -0.6120804
0003c0 58 60 b6 3e 17 48 ab be 47 23 96 be 01 5c 07 bf
       0.3562038 -0.33453438 -0.2932379 -0.5287476
0003d0 3d 79 8b bd 5e e0 09 bf 5f 00 cc be b0 86 93 bb
       -0.06810234 -0.5385798 -0.39844033 -0.00450214
0003e0 c2 53 05 be fb 70 fc 3e c1 ee 60 be 06 6f c6 be
       -0.13020232 0.49304947 -0.21966077 -0.3875658
0003f0 e2 1f 8c bd 8b 48 0e be 35 e8 f4 bd a9 59 05 bf
       -0.06842019 -0.1389486 -0.119583525 -0.52089936

fc2.bias f4 [32]
000000 6b ce 9d bd e5 96 13 3e e9 32 be bc fb a8 00 3e
       -0.07705387 0.1441303 -0.023217635 0.12564461
000010 af ac 96 3d cb 73 4d 3d 2a 3c cf 3d 9c cc 2e 3d
       0.073571555 0.050159257 0.10118897 0.0426756
000020 17 36 7c bd d3 09 a7 bd 26 08 b6 3c 98 48 8d bd
       -0.06157502 -0.08156171 0.022220682 -0.06898612
000030 7a 49 35 3d bd 59 aa bd df 96 f3 3c 15 8e 4a 3e
       0.044259526 -0.083178975 0.029735027 0.19780762
000040 31 ca 13 3d 34 52 8d bb fa ca 12 bd 8e 12 81 3d
       0.036081497 -0.004312778 -0.035838105 0.06302367
000050 61 f3 0e 3e 0e d9 0a 3e e1 1a 0b bc fb 43 9c bd
       0.13960029 0.13559362 -0.008490295 -0.07630154
000060 4d e0 19 3e 1b 2a 0c 3e 7b 5c bb 3d 67 67 0e bd
       0.1502697 0.13687937 0.091484986 -0.03476658
000070 0c f0 52 3e d8 09 4e 3d f1 7f 96 3d 88 1a 0a 3d
       0.20599383 0.050302356 0.07348622 0.03371671

fc2.weight f4 [32, 64]
000000 b3 95 a1 3e 34 bc 0d 3e 01 01 d4 bb 9f c8 e2 bd
       0.31559524 0.13841325 -0.0064698462 -0.11073422
000010 ea c2 2c 3e 9f a0 dc 3c 9e 0f e0 bd 5e 55 57 be
       0.16871229 0.026932059 -0.10940479 -0.21028659
000020 a9 30 55 3e 5e 3d b6 3d 6c 80 f4 3b 58 44 bd bc
       0.20819344 0.088984236 0.007461598 -0.023103878
000030 db 12 c7 3a 21 47 ea 3c 7e 70 b3 3d 6c d2 47 be
       0.0015188114 0.02859837 0.087616906 -0.19513863
000040 0f f9 4d bc bc bd 35 3e 51 0c 35 3d 80 93 17 bc
       -0.012571587 0.17748159 0.0442012 -0.009251475
000050 50 bc 2c 3d 93 b5 94 be b7 b4 e7 3c d8 9a 7c 3d
       0.042171776 -0.2904478 0.028284414 0.061671108
000060 25 71 1d 3d 53 99 d2 3d 7a 95 1e bd bc fd 24 be
       0.03843798 0.102831505 -0.03871677 -0.16112417
000070 f9 04 b9 3c 90 14 8b 3d 9a 8c b7 bd 93 2d 4d bd
       0.022585379 0.06791031 -0.089623645 -0.05009229
000080 ea c6 c6 3d 07 06 52 3e b9 4d 01 bf 4c 64 d6 3d
       0.097059086 0.20510112 -0.5050922 0.10468349
000090 0c 2e 9d 3d 87 ac 82 bd 1c 2e 6a bd b4 e9 0a 3e
       0.07674798 -0.06380563 -0.05717288 0.13565713
0000a0 43 06 05 3e 72 3a 93 be 12 9a e6 3d 97 0d c3 bd
       0.1299067 -0.28755528 0.11259855 -0.095240764
0000b0 9c 43 61 be f3 46 5c 3e 04 21 73 3e f6 d8 e6 3d
       -0.21998447 0.2151144 0.23743063 0.11271851
0000c0 93 0f 82 be 8f c0 81 3e e2 4d 43 be 0d 72 2b 3d
       -0.25402507 0.25342223 -0.19072679 0.041856814
0000d0 56 ac 98 3c 14 bf 3b bb 6f 5b 00 be 7d dd 9d 3d
       0.018636864 -0.0028647827 -0.12534879 0.07708261
0000e0 a9 ae fc 3c 10 f8 f3 3a e8 18 1a bd 1a 41 b7 bd
       0.030845003 0.0018613357 -0.03762141 -0.08947964
0000f0 60 03 2e 3e 26 17 9b 3d 95 0e 73 bd ea 25 6a 3e
       0.16993475 0.075727746 -0.05934008 0.22866026
000100 02 c7 0a 3e 54 7a 65 be 52 56 cb 3d c7 7e f9 bc
       0.13552478 -0.22409946 0.09928574 -0.03045596
000110 79 b2 cd bd 56 a3 99 bd dd fa 65 3e fb d8 f4 bd
       -0.100438066 -0.07501857 0.22458978 -0.11955448
000120 d3 85 d4 bd 59 88 18 3e 17 e5 33 3d c8 3a 04 be
       -0.103770874 0.14895763 0.04391965 -0.12913048
000130 60 e6 d8 bd f7 b4 29 bb 91 e3 4b 3d 81 ee 07 bc
       -0.105908155 -0.0025895217 0.04977757 -0.00829661
000140 09 d5 21 3e 58 da 37 be ef 07 27 bd 09 12 af bd
       0.15803923 -0.17954385 -0.04077905 -0.08548362
000150 4b df 01 3e 7c f9 44 3e 50 8b 48 3e 00 72 3d 3e
       0.12682836 0.19235796 0.19584394 0.18500519
000160 6c bc f1 3d 61 2e 1c 3b 71 1f 97 bd dd 71 50 3d
       0.11803517 0.0023831355 -0.07379044 0.05088984
000170 46 d9 a9 bd e1 73 ff bb 23 74 69 bd 82 9d 89 3d
       -0.08293395 -0.0077957963 -0.056995522 0.06719495
000180 98 6a ab 3d e1 3a 4c bc 79 d7 80 be 39 95 ae 3c
       0.083699405 -0.01246521 -0.25164393 0.02131139
000190 e9 9f 03 be 6c 2b 3c bc ec 57 f8 bc fd f8 5d bc
       -0.1285397 -0.011484962 -0.030315362 -0.013548133
0001a0 6f 17 62 3e 29 39 f9 3c a1 e1 4c 3d 27 45 c5 3c
       0.22079252 0.030422764 0.050019864 0.024080826
0001b0 5b 96 0b 3e f4 de 3f bd 11 34 e1 ba 7f 68 19 3c
       0.13631575 -0.046843484 -0.0017181655 0.009363293
0001c0 ed 8b db bd 4f f8 80 3e 6f dd 36 bd 39 32 a3 bd
       -0.10720048 0.25189444 -0.04464477 -0.079685636
0001d0 b3 b3 20 be 69 71 59 3a 0a ae d2 bc 9f 7b 3c 3d
       -0.1569355 0.00082947925 -0.025717754 0.04601633
0001e0 f3 f4 63 3c 16 12 01 3d fc b2 bc ba 6e c2 e1 bd
       0.013913381 0.03151139 -0.0014396603 -0.11023413
0001f0 e7 b5 ef bc 74 b9 0d bd 0a ed f7 3d f6 e4 ab bc
       -0.029261542 -0.03460069 0.121057585 -0.0209832
000200 3d a4 89 bd fc fe 2e be 48 56 4e bd 7a 8e cb bd
       -0.06720779 -0.17089456 -0.050375253 -0.099392846
000210 dc ee 99 bc 08 97 eb bd b8 38 ad 3d 5c ab cb bd
       -0.018790655 -0.11503416 0.08458084 -0.099447936
000220 0a f9 52 3c 97 b7 88 3e 2f 6c cc 3c 58 8e 0e 3e
       0.012876758 0.26702568 0.02495393 0.13921487
000230 3c e8 08 3d 29 40 e9 bc 55 4c c2 3d 82 fc 6e bd
       0.0334246 -0.028472977 0.094872154 -0.05834628
000240 1b 77 03 3e 74 32 41 3d 11 c0 a3 3e 02 73 22 be
       0.12838404 0.047167256 0.31982473 -0.15864184
000250 16 5c b8 bd f7 71 15 3e eb 7f dc bb 02 6c 1b 3d
       -0.09001939 0.14594255 -0.006729116 0.0379448
000260 a2 96 6d be d3 34 93 bb 57 2c 28 3c 21 66 db 3d
       -0.23201993 -0.004492381 0.010264478 0.10712839
000270 f8 76 51 bd 1d 8e 10 3c 61 59 1e be 47 bf 9d 3d
       -0.051138848 0.008822945 -0.15463783 0.07702499
000280 d6 5c 99 3e 98 b1 c6 3d a8 0c 88 3c 17 99 0d 3e
       0.2995364 0.09701842 0.016607597 0.1382793
000290 48 a4 01 3e 34 90 87 3d 95 ce 06 be 9d bb af 3d
       0.12660325 0.066193014 -0.13164742 0.08580706
0002a0 60 5a 8e bc 17 f1 46 3e b1 09 11 be 26 8b 0f be
       -0.017377079 0.19427906 -0.14163853 -0.14017925
0002b0 44 68 04 3e 7f b1 65 3d 01 91 35 3d b3 e3 3e 3e
       0.12930399 0.056077477 0.04432774 0.18641548
0002c0 34 45 22 3e 37 fd 64 3e 0c d1 74 3d c6 1b 4d bd
       0.15846711 0.22362219 0.059769675 -0.050075315
0002d0 bf 95 d3 bd 53 64 d3 bd 00 1e 11 be e4 2b 34 3d
       -0.10331296 -0.1032187 -0.141716 0.04398717
0002e0 d5 52 a3 bd 90 97 2d be e6 92 0b bd 36 e9 c1 be
       -0.07974783 -0.16952348 -0.03407564 -0.37873238
0002f0 38 da ff bd 93 cd b2 3d 26 fb 93 3e 9a 3d 96 bc
       -0.12492794 0.087306164 0.2890255 -0.01833992
000300 e9 a7 a4 be ac 5e c5 3d ad 3c b5 bd e3 8f 95 bd
       -0.32159355 0.09637198 -0.088494636 -0.07302835
000310 0d d3 c5 3e b8 24 ac be 1d 49 a1 3d 9e 69 8b 3e
       0.3863758 -0.33621764 0.078752734 0.27229017
000320 5e 2a 4d be f2 d4 e5 be 19 c5 c8 bd 76 2a 29 bd
       -0.20035693 -0.44889027 -0.098032184 -0.04130026
000330 f0 f3 0d 3e b1 13 2a bf e9 ba 77 3d 21 a7 57 3e
       0.13862586 -0.66436297 0.060480986 0.21059848
000340 73 64 20 be 30 67 5f bd f3 e8 b9 bd b5 20 18 3e
       -0.15663318 -0.054541767 -0.09077635 0.14856227
000350 2c bb fd be 3a 99 ac bf 61 15 72 3e 09 b0 f2 04
       -0.49556863 -1.3484261 0.23640968 5.705559e-36
000360 de ce 9d be 35 f0 57 bd d3 6a b8 be ba 93 a9 be
       -0.3082189 -0.052719314 -0.36019 -0.3312052
000370 a8 b8 db be 25 f0 0c be f2 2b cf 3e ee 2f 54 3e
       -0.4291432 -0.13763483 0.40463215 0.20721409
000380 8d da 99 3d 85 1b a3 3d 14 f9 8a be 27 62 08 bd
       0.075123884 0.07964233 -0.27143157 -0.03329673
000390 0d 14 92 bd 8d e0 06 3f b4 98 8f 3d 6e bd 9d 3c
       -0.07132731 0.5268639 0.07011548 0.019255366
0003a0 9b 61 47 3c ef fa cb b6 5d 49 d6 be 33 55 55 3e
       0.012169267 -6.079084e-06 -0.41852847 0.20833282
0003b0 96 2f 2a be 83 d8 0d 3c f9 04 08 bc 66 48 f2 84
       -0.16619715 0.008657577 -0.008301967 -5.6960414e-36
0003c0 93 e2 31 bf ab bb 88 be ad 71 30 3d 26 9b 7d 3e
       -0.6948635 -0.2670568 0.04307716 0.24766216
0003d0 1f 8a fd bd 40 eb b4 3d a9 d5 93 be 05 23 56 3d
       -0.1237986 0.08833933 -0.28873947 0.05227949
0003e0 61 34 a2 3d 98 a8 24 3e c3 99 af be 0d 6b 96 be
       0.07920147 0.16079938 -0.34296998 -0.29378548
0003f0 54 bd 76 be 76 18 94 3d 3c db 81 bf 4d 00 80 bd
       -0.2409566 0.07231228 -1.014503 -0.06250057

fc3.bias f4 [4]
000000 df 28 dd 3d 30 54 70 3d 43 dd 8a 3c 58 bf 14 bd
       0.10798811 0.058674037 0.016951209 -0.036315292

fc3.weight f4 [4, 32]
000000 a1 a9 46 3e 39 5b 2b be ba c1 19 3f 5f 48 ac be
       0.19400646 -0.16734017 0.6006123 -0.33648965
000010 5e 24 27 3e 27 e0 8c bf be 18 a1 3d a1 8d 7a be
       0.16322467 -1.1005906 0.07866047 -0.2446809
000020 d9 b9 19 bf 7d 57 c4 3f 70 a7 0f bf 9c 07 f1 be
       -0.60049206 1.5339199 -0.56114864 -0.47076118
000030 7d fd ad 3e 2e dd e0 3e f9 fb 1c 3e 39 ee 84 be
       0.3398246 0.43918747 0.15330495 -0.25963
000040 fd 41 83 be 69 fe d3 be c9 06 1d bc b6 99 5c be
       -0.25636283 -0.41405037 -0.009584137 -0.21543011
000050 cc 26 82 be 8b e3 cd be 5e 2c 0e be c5 af 0f 3f
       -0.25420225 -0.40212664 -0.13884112 0.5612758
000060 40 9a a8 3e c0 52 46 3f 7d 13 67 bf cc 14 90 3e
       0.32930183 0.77470016 -0.9026411 0.28140867
000070 0b df 92 3e 86 fd 54 bf cd 65 5a bf 92 69 26 bf
       0.28685793 -0.83199346 -0.85311586 -0.6500484
000080 64 2c 3c be c2 32 47 3e 3f 87 33 3e 39 2f 33 3f
       -0.18376309 0.19452956 0.17532061 0.6999393
000090 92 ff 9a 3e b5 74 47 3e 5f 1f cd be ff 2b 76 bd
       0.3027311 0.19478114 -0.40062997 -0.06010055
0000a0 f4 7d fa be ff dd 8f bf ea 74 36 bf ae bc 37 be
       -0.4892422 -1.1239623 -0.71272147 -0.1794307
0000b0 a8 b6 94 bd e7 d3 ec bd f8 c6 73 be f7 b6 15 3f
       -0.072614014 -0.11563855 -0.2380637 0.5848231
0000c0 35 d6 e0 be 25 88 ce 3d 6f 71 88 3f 74 50 9d bf
       -0.43913427 0.10084561 1.0659617 -1.2290177
0000d0 67 31 df bd b4 33 e0 3e a1 36 bf 3e e9 4f 02 bf
       -0.108980946 0.43789446 0.37346366 -0.50903183
0000e0 05 d6 97 3e 91 23 7a be 44 99 a1 bf 89 60 6b 3e
       0.2965547 -0.2442763 -1.2624898 0.22986044
0000f0 07 d8 d0 3d 49 f7 61 3f d7 9b d9 3e 4c 9f 0f bf
       0.10197454 0.8826795 0.4250171 -0.5610244
000100 7f 1e c4 3e ba fd 8d 3e e8 b1 ad 3d 58 29 d1 bf
       0.38304517 0.2773264 0.084811985 -1.6340742
000110 8c 9e 97 bd 86 ce 95 be da 8a 20 3f 0a 92 ed bd
       -0.07403287 -0.29259127 0.6271187 -0.1160012
000120 e9 2b 30 3f 09 68 1d 3f a6 35 4a 3e 84 6c 13 bf
       0.68817 0.6148687 0.19747028 -0.57587457
000130 75 46 a4 3e 9a 6d bb 3e ad 3f b8 be 93 0b 5b 3f
       0.32085004 0.36607057 -0.3598608 0.85564536
000140 c2 e5 12 3f b0 b1 26 be 2e f9 8b bf e9 66 ba 3e
       0.5738183 -0.1627872 -1.0935419 0.3640664
000150 96 21 79 bf 51 ec 77 3e f8 18 0c 3e bb 3e 3a bf
       -0.97316873 0.24211241 0.136814 -0.7275197
000160 a6 3e 0d 3f 17 cc 18 bf d9 29 b6 be 2c 75 94 be
       0.5517372 -0.59686416 -0.35578802 -0.28995645
000170 8c 99 c3 bd 4d 93 01 3f 3b 95 36 3f f3 b0 1b 3f
       -0.09550771 0.5061539 0.7132146 0.6081688
000180 6f 06 ae be 09 80 6a 3e 5b f5 49 3e 76 1d eb 3e
       -0.33989283 0.22900404 0.19722502 0.45920914
000190 ef 40 89 be b2 bc e8 3e d2 b5 e7 bd 49 83 cd 3e
       -0.26807353 0.45456463 -0.11313976 0.40139225
0001a0 96 5a 06 bf 75 3b 21 3f 5c e4 8c 3d ab 77 ad 3e
       -0.52481973 0.6298135 0.068794936 0.33880362
0001b0 1c 5c 09 be 68 19 64 3e 19 19 b0 3e 2f 74 f1 bd
       -0.13414043 0.22275317 0.34394148 -0.117897384
0001c0 3a 0c 44 3d 3f e9 6a bf f0 2c d8 be 51 ab c2 3e
       0.047863223 -0.91762155 -0.42221785 0.3802133
0001d0 53 04 c2 3d 0f e8 2f bb a9 f1 e3 3e 37 4e b8 be
       0.09473481 -0.0026841199 0.4452031 -0.35997173
0001e0 f1 5a 87 bd e3 3d 3a bf eb d6 81 3d 53 ac 71 bd
       -0.066091426 -0.7275068 0.063398205 -0.05900223
0001f0 6d 45 06 3f 95 c8 7b bf 91 2c a7 bf 3b 2e 86 3e
       0.52449685 -0.9835294 -1.3060476 0.26207146
